test01_Lenet/Lenet.pth (torch, 487471 bytes, 10 tensors)

conv1.weight f4 [16, 3, 5, 5]
000000 f9 4e de bb f3 f2 11 bc 1c 5a bd bc e6 69 25 be
       -0.0067843166 -0.008908021 -0.023114257 -0.16153678
000010 a4 10 f6 bd 23 27 7b 3d ed 4c e1 bc c8 40 aa 3c
       -0.12014893 0.06131662 -0.027502501 0.020782843
000020 e7 6b 22 be 4f 71 9e 3d 7d 4e ef bd 16 62 a7 bd
       -0.15861474 0.07736456 -0.11684892 -0.08173005
000030 88 c5 3f 3e cb 23 7a bc 44 e7 f0 bd b3 5e 72 3d
       0.18727696 -0.015267323 -0.117628604 0.059172343
000040 e0 19 ff bd e8 84 94 3d 4f 94 c9 3d a7 9f e4 3c
       -0.12456107 0.07251912 0.09842741 0.02790816
000050 55 b2 81 3d 9b 72 0a bd e2 33 58 be af 70 ac bb
       0.06332842 -0.033800703 -0.21113542 -0.0052624564
000060 64 8a 40 bd fa 16 d3 3d e5 f6 d3 3d b6 7a c0 bd
       -0.04700698 0.10307117 0.10349826 -0.09398405
000070 34 22 13 3e 48 f0 44 3e 06 c5 93 bd 3b 8d 2e 3e
       0.14368516 0.19232285 -0.072153136 0.17046063
000080 7b 8d e8 3d 7c 1e ce bd c7 98 3c 3e 3c fd 21 be
       0.1135511 -0.10064408 0.18417655 -0.15819257
000090 1d 14 6f bd 42 a9 86 3e 1f fc 29 bd 95 bf 24 3e
       -0.05836879 0.26301008 -0.041500207 0.16088708
0000a0 01 53 32 bd 1b 87 9b 3d c1 79 b2 3d 28 0d af 3d
       -0.04353619 0.07594129 0.08714629 0.08547431
0000b0 e7 0b 77 bd 01 f6 74 3d 12 29 b9 bb 86 a4 64 bd
       -0.060314085 0.05980492 -0.005650648 -0.055820964
0000c0 09 cd 9f 3d 18 59 08 3e ee fb 2d bd c5 06 c9 bd
       0.07802779 0.13315237 -0.042476587 -0.09815744
0000d0 72 d3 18 be 16 0b 99 bd 8c 88 47 3d 66 49 aa 3d
       -0.1492441 -0.074728176 0.048714206 0.08314781
0000e0 28 3a cf 3d 80 cd 6a 3d b0 c0 30 be c8 98 8f bb
       0.10118514 0.057324886 -0.17261004 -0.0043822266
0000f0 d5 0d ef bd 99 64 16 bc b4 06 c4 3c 4a 93 2e be
       -0.1167256 -0.009179258 0.023928978 -0.17048374
000100 9a 48 0e bd ea f0 bd bc 3a 80 3a 3c 26 58 f2 bd
       -0.034737207 -0.023186166 0.011383111 -0.11833219
000110 ff 9e a7 3b 56 35 25 be e2 5d 6c 3d c7 1d d6 3d
       0.0051153894 -0.16133627 0.05770672 0.10454898
000120 ca f3 42 be 9a 0c d2 3d 0f 3e 37 bc 64 47 f1 3c
       -0.1903831 0.1025631 -0.0111842295 0.029452987
000130 f6 34 94 3c 27 13 e8 3c 9a 11 c1 3c ff b6 36 3d
       0.01809166 0.028329445 0.023567963 0.044608112
000140 2b 6b af bc 4b 44 71 3d ca c4 39 3d e7 8d e9 3b
       -0.021413406 0.05890302 0.04535369 0.007127512
000150 ba f7 06 3e f7 f9 ee bc 24 d0 c8 3b 0d cc 36 3c
       0.13180438 -0.029171927 0.006128328 0.011157048
000160 1c b2 bb 3d 99 13 e5 3d 2d 41 9d 3c 28 92 bb bc
       0.09164831 0.111853786 0.019196117 -0.022896841
000170 a2 ac f9 3d 42 e2 ad 3d 06 7f 25 bb 2c c9 b9 bc
       0.1219113 0.08490421 -0.0025252714 -0.022678934
000180 a1 04 ca 3d f8 db 02 3d 39 2d 9f bd 0a 3f e8 bd
       0.09864164 0.03194806 -0.077722974 -0.11340149
000190 de 71 b2 bc c7 e9 42 bc 8e 22 66 bd 8f 0a 91 bb
       -0.021782812 -0.011896557 -0.056185298 -0.0044263075
0001a0 95 b3 5d bd 45 e9 9a bc a7 10 11 be b9 6e 08 be
       -0.05412634 -0.01891006 -0.14166509 -0.13323487
0001b0 bd 98 70 3d 91 c0 08 3e bc 84 73 bd 28 53 31 bd
       0.058739413 0.13354708 -0.059452757 -0.043292195
0001c0 05 21 03 bd 98 f9 ea 3d 32 43 05 3e 42 24 4e be
       -0.03201391 0.114733875 0.13013914 -0.20131019
0001d0 dc 42 56 3d b7 66 e3 bc 67 3b bf 3d fb 4e 3e 3d
       0.052309856 -0.02775894 0.09337502 0.04646204
0001e0 c8 c5 14 bd 4e b2 f7 3d fe 5f ed 3d 62 62 d5 bb
       -0.03632143 0.12094556 0.11590575 -0.0065119723
0001f0 3c 33 e7 3c 49 e0 17 be 42 a6 ea bd ec ae c5 bc
       0.028222673 -0.14831652 -0.114574924 -0.02413126
000200 ca f7 e9 bc d7 de ef 3d 42 db b6 bd c1 9c 73 bd
       -0.028560538 0.11712425 -0.08928539 -0.059475664
000210 07 26 1f bd d0 69 10 bd ca d8 65 3c 81 60 59 be
       -0.038854625 -0.03525716 0.014028737 -0.2122822
000220 1a 31 51 be d0 2f f3 bb 3d b8 0f 3e 87 11 98 3a
       -0.20428887 -0.007421471 0.14035125 0.0011601903
000230 33 de 19 be bd 53 0b be 13 68 19 3e 1f 6e 30 3e
       -0.15026169 -0.13606162 0.14981107 0.17229508
000240 d8 50 9c 3d 53 77 0f bd a2 1a dd 3c 8b e9 69 3e
       0.07632607 -0.035025906 0.026990239 0.22842996
000250 a7 06 29 3e 32 a7 16 3c 12 2b f6 bc d1 3f 6a bd
       0.16506444 0.009195136 -0.030049834 -0.057189766
000260 a6 a8 30 bd 03 d5 a2 3d a6 cb 40 3e 50 82 02 3e
       -0.043129586 0.07950785 0.18827686 0.12745023
000270 51 58 f6 bc 1c 32 bb bd ca f7 5f bd 82 79 2a 3d
       -0.03007141 -0.09140417 -0.05467967 0.041619785
000280 b5 6b 25 3e e9 23 1b bd 9f 36 ae bd 7f 36 13 be
       0.16154368 -0.037876043 -0.08506512 -0.14376257
000290 d6 30 98 bd 34 32 14 3e 36 54 05 3d d7 f1 5b bd
       -0.0743119 0.14472276 0.032551013 -0.053697433
0002a0 ec 6e f2 bd 19 7a c6 bb e9 79 02 be d5 50 07 bd
       -0.11837563 -0.0060570356 -0.12741818 -0.03303607
0002b0 f7 96 5a bd 13 0c 1d 3d 26 7d fa bd 92 8a 57 bd
       -0.053366628 0.038341593 -0.122309014 -0.052622385
0002c0 aa e7 75 bd b7 4c 81 bd 4b 3e a8 bd 21 0a 7f bd
       -0.060035385 -0.0631346 -0.082150064 -0.06226552
0002d0 16 74 87 3d 7e 99 1e 3d 5c 83 1e be c3 27 94 bd
       0.066139385 0.0387206 -0.15479797 -0.072341464
0002e0 2c 63 b4 bb 96 86 8a 3e a8 67 0e 3e f3 e1 a1 3c
       -0.0055049863 0.27055806 0.13906729 0.019761061
0002f0 bb 4d 11 be 5f 64 06 be 2f ac b1 3c a1 6b 0b 3e
       -0.14189808 -0.13124226 0.021688549 0.13615276
000300 d5 4d e9 bc 7a 05 2a be 3f ae 52 be 67 a2 14 3e
       -0.028479496 -0.16603652 -0.20574282 0.14515077
000310 e3 c0 00 3e ec 81 60 3d e6 09 50 3d 1f 9a 15 bd
       0.1257358 0.054811403 0.05079069 -0.036523934
000320 fd d6 d9 3d 6a df 01 be 4b 23 9f bd c4 0e 1d bd
       0.10636709 -0.12682882 -0.077704035 -0.03834416
000330 82 da c5 bd 0a 50 8b 3d 75 90 dd 3d 27 51 ff bd
       -0.09660818 0.068023756 0.108185686 -0.124666505
000340 cb 5e 4c bd 48 56 9e bd 28 58 22 3e 85 e3 5d bc
       -0.04989509 -0.077313006 0.15853941 -0.013543014
000350 d9 c7 6e 3c 7b 27 65 be 27 98 47 be d2 92 66 3e
       0.014574015 -0.22378342 -0.19491635 0.22516945
000360 8e 10 58 3e 58 e7 36 3c a8 15 ed bd 1a e1 62 bd
       0.21100065 0.011163555 -0.11576396 -0.055390455
000370 06 89 53 3e 53 5c 57 3d fa 8a 1c 3e 8c be af bc
       0.20657739 0.05257828 0.1528739 -0.021453165
000380 90 1c 00 be 08 f1 65 be 90 a5 8f bb 90 69 3c 3d
       -0.12510896 -0.22455227 -0.0043837503 0.04599911
000390 a2 f6 65 3d 1c 9e 44 3d 0d db 73 3b 4e 94 5b 3e
       0.05614341 0.048002347 0.0037209422 0.21443292
0003a0 59 e1 89 3e 5c 12 a3 bc 2e 26 1e bd 38 ad 7c 3e
       0.2692974 -0.019906215 -0.03861063 0.24675453
0003b0 37 be 29 3e 37 03 e1 3d 60 41 4e be f0 4c e2 bd
       0.16576467 0.10986941 -0.20142126 -0.11049831
0003c0 f1 f7 af bc fc 8e 11 be 1c 65 82 be 45 9a 66 be
       -0.021480532 -0.142147 -0.25467765 -0.22519787
0003d0 1e d0 41 bc d3 b5 55 bd ec 0a 90 bd f2 8d 35 bd
       -0.011829404 -0.052175354 -0.07033333 -0.044324823
0003e0 2f b9 dc 3d ee c6 b0 3d c6 6a c7 bd b8 f8 7a bd
       0.107775085 0.08631693 -0.09737162 -0.061272353
0003f0 b8 0d 0f 3d 74 cf 73 3d ea 1e 06 3c af fc a8 bc
       0.034925193 0.059524015 0.008186081 -0.020628301

conv1.bias f4 [16]
000000 46 37 ce bd bc d7 87 be 92 f5 6c be 0e f1 16 be
       -0.10069136 -0.2653178 -0.23140553 -0.14740393
000010 f8 41 40 be d8 06 2d bd e7 d2 21 be dc 5e 16 3e
       -0.18775165 -0.042242855 -0.15803109 0.14684623
000020 98 00 80 bd ac a8 71 be 8b 46 43 be e9 45 13 be
       -0.06250113 -0.235995 -0.19069879 -0.14382137
000030 f7 3a 6f be cf 48 9b bd 23 61 35 bd 5a 9a 47 bd
       -0.23362337 -0.075822465 -0.04428209 -0.048731185

conv2.weight f4 [32, 16, 5, 5]
000000 1f 87 c4 3d 39 a1 06 3e c4 1d 84 3d c3 30 51 3d
       0.09596085 0.13147439 0.0645099 0.051071893
000010 18 d1 b9 bd 04 93 a0 3d 57 f4 95 3d 2a f3 02 3e
       -0.090730846 0.07840541 0.07321995 0.12788072
000020 b7 e3 cc 3c 43 d1 b3 bd 60 df 27 3d 1c fc 97 3c
       0.025010927 -0.08780148 0.04098451 0.018552832
000030 77 5b 05 3e b1 e6 4b 3d 62 f4 d7 bd d5 a0 0b bd
       0.13023172 0.04978055 -0.10544659 -0.03408893
000040 63 71 e4 3c c4 0b fa 3c 6e 36 81 bd 95 84 8a bd
       0.027886098 0.030523188 -0.0630921 -0.06763569
000050 96 97 e0 3b 01 b9 c1 3b 17 b5 0b be 2b dc 1c be
       0.006854008 0.0059119468 -0.13643299 -0.15318362
000060 65 f1 0f be e1 4f 2a bd b7 b6 df bd 33 ab 32 be
       -0.14056928 -0.041580085 -0.10923522 -0.1744812
000070 99 7b bf bd a4 56 6c bd c0 03 b6 bd 7d e7 f0 bd
       -0.09349746 -0.057699814 -0.08887434 -0.11762903
000080 44 b6 2f bd 18 d3 1f bd 91 7f cd bd 4d 2d cb bc
       -0.04289843 -0.039019674 -0.10034097 -0.024801875
000090 c6 5a 87 bd 92 da 29 3d b4 55 5f 3d 76 f8 c6 bd
       -0.066091105 0.04146821 0.054525092 -0.09715359
0000a0 ed e4 87 3d db e4 b6 bd 22 ca d7 3c 3d 7d 60 3c
       0.06635461 -0.089303695 0.026341502 0.013701734
0000b0 aa 35 e5 3d 98 c2 e8 bc e0 69 1d be 5f 75 3c bd
       0.11191876 -0.028413102 -0.1537242 -0.04601037
0000c0 55 33 3c 3a f1 8e e3 3d 7c 1b 92 bd a3 b0 9f bb
       0.000717928 0.11111248 -0.071341485 -0.0048733517
0000d0 51 78 47 bd 8f 90 c3 bd 49 cb d5 bc e2 27 39 3c
       -0.048698727 -0.09549057 -0.02609791 0.011301013
0000e0 5d a5 0d bd 1a a4 b3 bd 6d 6e 7e bd 5a db b1 3d
       -0.03458153 -0.08771534 -0.06211703 0.08684416
0000f0 f5 af cb 3c 3c 6f e2 bb 7c c8 dd bd cd f6 c9 bc
       0.024864176 -0.006910233 -0.10829255 -0.024653817
000100 b7 ab ab 3d 7f d4 8c 3d 29 9b d3 3c 1c 9c de 3c
       0.083823614 0.06876468 0.025830822 0.027174048
000110 46 01 29 bc 6e 43 88 3d d5 e0 27 3d 0d 9c 44 bb
       -0.010315245 0.06653486 0.0409859 -0.003000024
000120 ce 56 5f 3c 13 fc cb 3d 07 c2 a6 3d 0c 7e 11 be
       0.013631536 0.09960189 0.081424765 -0.1420824
000130 05 3f ae bd 5c 79 12 be 59 58 b0 3a 50 73 4f 3d
       -0.08508114 -0.14304107 0.0013454064 0.05064708
000140 da 35 dc bd a0 e2 a7 bd 22 fe cf bd 17 b9 7d 3c
       -0.10752459 -0.08197522 -0.10155894 0.015486023
000150 86 2e 7a 3e 92 92 09 be 7c a4 a7 bd 91 cf 8e bd
       0.2443181 -0.13434818 -0.0818567 -0.06973184
000160 a2 97 9f 3d c2 1c 30 3e 55 92 f9 bd c9 0b bb bc
       0.077925935 0.1719847 -0.12186114 -0.022832768
000170 c3 82 8c 3d 07 0b 4e 3e d4 c5 e0 3d 82 fd 2e 3d
       0.06860878 0.20121394 0.10975233 0.042722233
000180 0d 99 67 3e cc f7 38 3e a9 fb 19 3e 9c 61 37 3d
       0.22616978 0.18063277 0.15037407 0.044770822
000190 71 90 46 be 1b 6a d9 bd 06 4e 2d be 39 ec d2 bd
       -0.19391038 -0.10615941 -0.16924295 -0.10298962
0001a0 f8 f4 97 bd e8 d9 50 be d2 24 1a be 2b 1a 83 bd
       -0.07419771 -0.20395625 -0.15053108 -0.064014755
0001b0 27 2a 92 bd b7 a8 96 bd e9 77 fe bd c1 4c fc bc
       -0.07136946 -0.073563986 -0.12425215 -0.030798318
0001c0 30 50 6c bd d2 ce e1 3b 9f 50 c7 bd af 15 16 3b
       -0.05769366 0.00689111 -0.09732174 0.0022901108
0001d0 fd d5 13 bc 11 eb 54 bc 48 92 ea 3c fd ab de bd
       -0.009023187 -0.012995497 0.028634205 -0.10872648
0001e0 dc 52 30 3d 1d 20 ae 3d 6e 5c 44 3e a6 ff dd 3d
       0.04304777 0.08502219 0.19175884 0.10839777
0001f0 c9 39 98 3c 39 b4 d8 3b cf c1 12 3d 70 54 34 3d
       0.018582242 0.006613281 0.03582936 0.04402584
000200 bc 9b 8a bc e1 30 42 3d 91 59 f3 3d a1 6f a8 3d
       -0.016919963 0.047409896 0.11882318 0.082244165
000210 f5 ab 20 3e 6a 12 38 3e 2e 37 96 3d 91 94 5c 3e
       0.15690596 0.17975774 0.073347434 0.21541049
000220 9d 45 2c 3e 03 88 f6 3d b1 37 19 3e 1b 50 38 3d
       0.1682343 0.12037661 0.14962651 0.04499827
000230 5f 9c e2 3d 00 a7 14 3e b3 87 37 3e ae 19 ad bd
       0.11064982 0.1451683 0.17922859 -0.08452164
000240 63 67 0d be 44 e0 3f 3e d3 bd 89 3d c3 32 11 3e
       -0.1380897 0.18737894 0.06725659 0.1417952
000250 b8 30 02 3d f0 6c ed 3d eb 3e b8 3b 6d bb 46 3d
       0.031784743 0.11593044 0.005622735 0.048518587
000260 78 94 4c bd ff 1f b7 bd cb 2d 85 bc c0 38 aa bd
       -0.04994628 -0.0894165 -0.016257187 -0.083116055
000270 32 35 d3 3d dd 5e 1d 3e a4 c4 9a 3d 4e 40 a9 bd
       0.103128806 0.15368219 0.075570375 -0.08264218
000280 ea 46 ba bd 31 5d e3 3c e7 ff 90 3d a5 ea a2 3c
       -0.09095557 0.027754398 0.070800595 0.019887278
000290 d7 bf 35 be 32 ad 51 bc 12 3d 48 3d 32 81 36 3d
       -0.17748962 -0.012797641 0.048886366 0.044556804
0002a0 72 ea e1 bd 0c 79 ae bd ca 98 34 3b a8 bd 1d 3e
       -0.11031045 -0.085191816 0.002755689 0.1540438
0002b0 69 e2 26 3d 40 b6 83 bd 47 20 5a bd 86 6d e4 3b
       0.040743265 -0.06431246 -0.05325344 0.006971064
0002c0 02 83 23 3d 0d 06 9c 3d e1 08 f6 3d dd 30 a3 3d
       0.03991986 0.076183416 0.12013412 0.07968304
0002d0 8d cb 91 bd f0 9f 40 bd 9e cc 02 3d 27 66 74 3d
       -0.07118902 -0.04702753 0.03193342 0.059667733
0002e0 48 20 e9 3c 3f de 82 bd 80 f0 0f bc 2b 73 8b 3c
       0.028457776 -0.06390046 -0.008785367 0.01702269
0002f0 9c 82 c1 3d bc 5b 61 3d 77 24 03 be e9 52 1e bd
       0.0944874 0.055019125 -0.12806879 -0.038653288
000300 38 23 96 3c d0 41 e3 3b 5e a6 b8 bc 5d b1 23 bc
       0.01832734 0.0069353357 -0.022540268 -0.009991017
000310 d2 ab a6 bc 87 cf 87 bd 82 4a 11 be 2c 2e 14 bd
       -0.020345602 -0.066313796 -0.14188579 -0.036176845
000320 59 99 d9 bd 81 be 8a bd 05 a3 0c be 88 47 4f be
       -0.10624952 -0.06774617 -0.13734062 -0.20242131
000330 14 0d fb bd 92 d3 e8 bc 5a 54 e7 bc 09 e8 a0 bd
       -0.12258354 -0.028421197 -0.028238464 -0.07856757
000340 d1 f3 07 be 4a 78 06 be 14 22 19 be 30 80 09 bd
       -0.13276602 -0.13131824 -0.14954406 -0.033569515
000350 83 23 37 bd f5 51 54 3d 46 de ac bc 45 e6 d5 bd
       -0.0447116 0.051835973 -0.021102082 -0.10444311
000360 8f 55 61 bd bb c0 52 3d 77 bc fe 3d 29 dc bb 3c
       -0.055013236 0.051453333 0.124382906 0.022932129
000370 6c 89 97 bc d0 e1 e1 3d 70 cf e3 3d e6 83 bc bc
       -0.018498145 0.110293984 0.1112355 -0.023012113
000380 3b 32 bc bc 95 50 88 be de fd 70 be 35 01 07 be
       -0.02297317 -0.2662398 -0.23534343 -0.13184054
000390 23 03 05 be 68 09 80 be 75 9c 41 be c4 9d 1b be
       -0.12989478 -0.25007176 -0.1890734 -0.15196902
0003a0 8b 6b c0 bd a3 0a 75 bd 8a 4c f3 bd 00 ce fc bd
       -0.09395512 -0.059824597 -0.11879833 -0.12343979
0003b0 eb 44 a7 bd 7c 9e 43 bd a4 cf ae bd 11 eb 13 be
       -0.08167442 -0.047758564 -0.08535698 -0.1444514
0003c0 b9 fa 71 be a3 6c 45 be a4 c2 fa bd d8 cb 09 be
       -0.236308 -0.19279723 -0.12244156 -0.13456666
0003d0 c9 01 ac bd f1 5e 3c be de ff 0b bd 7b ce 8c 3b
       -0.08398778 -0.18395592 -0.03417956 0.0042970753
0003e0 7b 9a d9 bb a0 f4 36 bc 80 b8 95 bd 3f 25 10 bd
       -0.00664073 -0.011166722 -0.07310581 -0.03519177
0003f0 4c f1 2d 3d 7e 3f 7e 3d d5 52 d3 3b 44 c0 db bd
       0.042466447 0.06207227 0.0064490833 -0.10730031

conv2.bias f4 [32]
000000 0a ab 55 3d 17 56 47 be 73 e1 76 3d e8 9c 7d 3e
       0.05216507 -0.19466434 0.0602736 0.24766886
000010 12 fc 90 3d f0 57 91 be c5 cb 4d 3e d7 86 ed 3e
       0.070793286 -0.28387403 0.20097263 0.46391937
000020 c5 19 21 3e 48 eb 9c bd a7 dc 13 3e f8 a3 12 3e
       0.15732487 -0.07662064 0.14439641 0.14320362
000030 45 95 a4 be c7 85 88 3e ee eb 0c bd ef 8e d5 3d
       -0.32145134 0.26664564 -0.034404688 0.10427653
000040 56 8b 7a 3e 1d ac 13 3e 58 ee a9 3d 77 80 6d 3d
       0.24467215 0.14421125 0.082974136 0.05798384
000050 2c 24 08 bd 6e 8d d3 bc 5e 1f 6d 3e 4d 2d 75 be
       -0.03323762 -0.025824275 0.23156497 -0.23943062
000060 72 1c a2 be a6 82 04 be e5 35 ad bd 18 20 1f bd
       -0.31662327 -0.12940463 -0.08457545 -0.038848966
000070 70 36 ad 3d 20 a9 3f 3e b9 d7 a8 3e 70 e4 15 bd
       0.08457649 0.1871686 0.32977083 -0.036594808

fc1.weight f4 [120, 800]
000000 9e ac ef bb 29 64 bb bc 76 2a 58 3b 1e 1f 47 3c
       -0.0073142787 -0.022874909 0.0032984293 0.012153415
000010 4a ce a5 3c 02 21 d3 3c 0d 97 0d 3d a5 6c 8b bc
       0.020239968 0.025772575 0.03456788 -0.01701958
000020 95 2e e3 3c 5f 7c 7a bc 3e 93 22 3c f0 35 a9 bc
       0.027732173 -0.015288441 0.009922801 -0.020655602
000030 42 bc 39 bb 90 f5 0d 3b 17 a8 12 bc 83 e5 3a bd
       -0.002834097 0.002166126 -0.008951209 -0.045629036
000040 a4 b3 1c bd 3b e8 06 bd 91 8f ef bc 2a 64 5b 3b
       -0.038257256 -0.032936316 -0.029243262 0.003347645
000050 2f c3 54 bc ac cb 55 bd 82 dc 49 bc fa f1 b7 bc
       -0.0129859885 -0.05219619 -0.01232064 -0.02245425
000060 b8 b6 fa bc bf bc 04 3c af 46 08 bd bf f9 01 bd
       -0.030604705 0.008101641 -0.033270534 -0.031732317
000070 91 83 f7 3b 1e 65 bd bc 07 9d 50 3c 62 29 ed bc
       0.0075535257 -0.023119505 0.012732751 -0.028950397
000080 a2 5a 1f bd dd 32 49 3c 57 03 d3 bc 85 f6 3c bc
       -0.038904794 0.012280193 -0.025758428 -0.011533384
000090 b8 a6 d7 bc f5 9a bb bc 79 d7 6d 3c 08 62 0e bd
       -0.026324615 -0.022901038 0.014516705 -0.03476146
0000a0 7c 0f 1b bd 8e 75 27 bc 7e 1a c5 3c 20 b6 3c bb
       -0.037856564 -0.010220898 0.024060484 -0.0028795078
0000b0 6e d1 e7 bc 54 ee 20 bd d2 9c 2a bb 12 65 00 3c
       -0.028298106 -0.039289787 -0.0026033414 0.007836597
0000c0 8e 63 15 bd d9 57 fc bc 75 1f cc bb ac d2 92 3a
       -0.036471896 -0.030803608 -0.006229336 0.0011201701
0000d0 69 41 06 bd d5 b6 ae 3c 29 ac fe bc d9 da aa ba
       -0.032777224 0.021327415 -0.031087952 -0.0013035192
0000e0 bb 4b a1 3c d6 d7 08 3a f7 a1 87 bc 51 af 00 3c
       0.019689431 0.00052201503 -0.016556723 0.007854299
0000f0 f1 76 df 3c 5c 01 d3 3c 5c e7 d3 bc d0 41 4b bc
       0.027278395 0.025757484 -0.025867157 -0.012405828
000100 7b 6f dd ba da 1e 9f bc 6e a5 15 bc 6e 92 50 3c
       -0.0016894186 -0.01942389 -0.00913368 0.012730224
000110 89 17 68 3c 41 fc 25 3c 59 9f c3 bc 57 b0 16 bd
       0.0141657675 0.010130943 -0.023879694 -0.036789265
000120 cf 09 98 bc 9e 0d a4 3c eb 42 ab bb 99 69 05 3c
       -0.018559365 0.020026024 -0.005226483 0.008142852
000130 90 e5 09 bc 4e a3 aa 3b bf 5c 10 bd f5 40 5f 3a
       -0.008416548 0.0052074557 -0.0352447 0.0008516454
000140 3a be 91 3c bc c7 3a 3c 8c c3 73 3c 9a bd 8b bb
       0.017790902 0.011400159 0.014878165 -0.0042645456
000150 20 56 81 3c e3 77 4f bd 73 9b 3b bd f9 44 4e bd
       0.015788138 -0.050651442 -0.045802545 -0.050358746
000160 62 5e 47 bd dd 0f d8 bc 32 30 bc 3c 0e 0e 97 bb
       -0.048673995 -0.026374752 0.0229722 -0.0046098297
000170 f4 39 c9 bc bf 7e 25 bc e7 38 0b bb 9e df 54 bc
       -0.024563767 -0.010101019 -0.0021243633 -0.012992768
000180 ef d7 e9 3c 44 10 9a bc d2 f1 11 bc 35 2a b6 bb
       0.028545348 -0.018806584 -0.008907752 -0.0055592307
000190 7c bb d7 bb 88 ca 9e 3c 28 60 81 38 e6 2f d0 bc
       -0.006583629 0.019383684 6.16911e-05 -0.025413465
0001a0 83 11 be 3b cd 00 e2 bc 32 b4 bc bc b6 bd 1d bd
       0.0058004274 -0.027588272 -0.023035143 -0.038511
0001b0 86 f2 c6 3b eb b6 f4 bc 4f 2b 10 3c c2 ed de bc
       0.0060713915 -0.029872378 0.008799388 -0.027212981
0001c0 d4 82 a1 3c bc a1 2c bc da 7f 36 bc 22 83 06 bd
       0.019715704 -0.010536607 -0.011138881 -0.0328399
0001d0 0d 99 bb bc 7e c2 0c bd 0a 15 ce bc cc 82 fb 3b
       -0.022900129 -0.03436517 -0.025156517 0.0076755043
0001e0 c6 64 55 bc bd 27 11 3d 3b c7 f1 3c 70 f0 11 bd
       -0.013024515 0.035438288 0.029513946 -0.03562969
0001f0 89 9a bc bb a7 b7 8e bb b2 32 96 3c 40 62 1a bd
       -0.0057557267 -0.004355389 0.01833472 -0.037691355
000200 a8 c7 11 bd 7d c5 74 bc f0 b5 94 3c cd 13 81 3b
       -0.035590798 -0.014939663 0.01815316 0.003939128
000210 5a 14 85 bc bb 11 5b bb 21 cb e8 bc d1 24 d9 3c
       -0.016245056 -0.0033427316 -0.028417172 0.026506813
000220 68 c6 8a bc 52 29 01 bd 5a c6 aa bb c8 b8 98 3b
       -0.01694031 -0.031533547 -0.0052116336 0.0046606995
000230 44 eb 7f 3b 81 e0 26 bd 10 79 80 bb b8 3a 1f bc
       0.0039050141 -0.040741447 -0.003920682 -0.0097185895
000240 2e d2 0c bd ad 4f c5 bb 9c 8a 0c bd 45 fa de bb
       -0.03438013 -0.006021461 -0.034311876 -0.006804737
000250 6e f2 14 bd ca cb c0 bb 78 95 71 bc 38 df 45 bc
       -0.03636401 -0.0058836685 -0.014745109 -0.012077145
000260 aa 00 6b bc e4 91 1a 3d 49 70 2e ba ac 97 29 bd
       -0.01434342 0.03773679 -0.0006654305 -0.04140441
000270 f9 5b 0b bd 76 40 97 3c d0 ec 92 3c 5e c1 56 bc
       -0.03402326 0.018463355 0.017935187 -0.013107626
000280 27 57 c0 bc 27 84 9a bc 64 93 ac 3c ff 8e 43 3c
       -0.023479057 -0.018861843 0.021066375 0.011935948
000290 7f 78 d1 bc f0 01 fb 3c ce 1f 82 3c 9c 29 08 bd
       -0.025570152 0.030640572 0.015884306 -0.033242807
0002a0 10 02 8f bc 9b 13 e1 bc d0 aa 03 bd ad 97 91 3c
       -0.017457038 -0.027475169 -0.03214532 0.01777252
0002b0 6a b0 fe 3c ec 01 10 bb 20 fb 89 bc 8b f4 1e bd
       0.03108998 -0.0021973802 -0.016843379 -0.038807433
0002c0 67 59 17 bd 37 ca e9 3c 98 07 7b bc a6 eb c5 3c
       -0.036950495 0.028538806 -0.015321635 0.024160217
0002d0 f1 22 1d ba a9 5e d8 bc 2a a9 fe bc 49 a4 ad 3c
       -0.00059942814 -0.026412325 -0.031086523 0.021196501
0002e0 a6 a1 a5 3b 78 b5 f6 bc 95 92 92 bc 5f 23 e4 3c
       0.0050546704 -0.030115828 -0.017892161 0.027848898
0002f0 f2 60 45 3c 62 aa ee bb 22 58 c7 bb 9c b0 1c 3c
       0.012047039 -0.007283495 -0.0060835043 0.009563591
000300 52 74 67 3c 2f bb f2 3c cd 0a 57 bc a7 e5 ac bc
       0.014126854 0.029630272 -0.013125134 -0.0211056
000310 40 70 02 bd 9a ba 70 3c ea 05 c2 bc b4 8d 63 3b
       -0.03184533 0.014692927 -0.02368446 0.0034721913
000320 7c ae 49 3a f0 a9 b9 3b d6 44 2b bd 7b a6 e3 bc
       0.00076935417 0.00566601 -0.041813694 -0.027789345
000330 9b 47 23 bd d2 99 08 3c 18 9b 31 3c 87 38 d1 3c
       -0.03986321 0.008337455 0.0108402 0.02553965
000340 e9 ba a0 3c d5 dc e5 bc 9f 99 33 bc 8f c8 cb bc
       0.019620376 -0.028059402 -0.010961919 -0.024875907
000350 ed 62 59 bc 4f 8e 02 3b db 41 d7 bc 41 dc fd bc
       -0.013268215 0.0019921248 -0.02627652 -0.030988814
000360 61 06 29 3c 04 4b 30 bb 96 e0 13 bd fc 56 2b bd
       0.010316462 -0.0026900182 -0.036102854 -0.041831
000370 f3 5c f5 bc a9 7a 57 bc 67 69 15 bd 18 11 ca bc
       -0.029951548 -0.013151803 -0.036477473 -0.024666354
000380 d3 6a 28 bd 23 6e 06 bd e6 69 64 bc 72 2c 51 bc
       -0.0411175 -0.03281988 -0.013941264 -0.012766944
000390 ee d0 37 3c 7d a2 16 bd 64 33 2b bd fd 12 47 3c
       0.011219246 -0.036776055 -0.041797057 0.012150523
0003a0 20 bc f8 bc 1a 85 a3 bb 19 57 4d bd fc a5 41 bd
       -0.030363142 -0.004990232 -0.05013189 -0.047277436
0003b0 7b a5 c5 3c 76 dd 5d bc ca bf 85 bc cb 05 c1 bc
       0.024126759 -0.01354157 -0.016326804 -0.023562333
0003c0 c1 0d 60 bb 29 26 dc bc c8 9f 9b bc 9a 11 82 bb
       -0.0034187885 -0.026873665 -0.018997088 -0.0039693834
0003d0 1d c6 4f bd 29 a9 49 bd a3 ed a7 bc 0b f7 ec bb
       -0.050726045 -0.04923359 -0.020499056 -0.0072315983
0003e0 51 3c bf 3b 67 0c 99 3b be bb fe b9 fb e3 3f bd
       0.0058360477 0.004670668 -0.00048586534 -0.04684828
0003f0 d5 73 ac bb 92 15 3d bd db 28 de ba 21 6c cf bc
       -0.0052628317 -0.04616315 -0.0016949432 -0.025320115

fc1.bias f4 [120]
000000 ac b2 b4 3c eb bf 62 ba 0a 5b 70 3d 56 53 31 bc
       0.022057854 -0.0008649814 0.05868057 -0.0108230915
000010 c7 b8 3d bd dc 64 0f 3d 6f 82 8e bd 76 e1 9c bc
       -0.046318796 0.035008296 -0.06958472 -0.019150477
000020 5f c4 81 bc 2e 76 96 3c 80 69 83 3e 39 39 25 3e
       -0.015840707 0.0183669 0.25666428 0.1613511
000030 d7 c9 4d be e2 3d 64 3e a8 84 09 bd eb 21 d6 3b
       -0.20096527 0.22289231 -0.033573776 0.006534805
000040 a6 ba 28 3e b5 22 ab bb ac b7 ce bb 94 f2 aa 3e
       0.1647745 -0.0052226433 -0.0063085165 0.33388197
000050 78 3a e8 3d 89 f6 2f bd f5 f5 bd 3c 39 bd c7 3c
       0.11339277 -0.042959724 0.02318857 0.02438222
000060 96 13 36 3c 57 75 a2 3c d2 83 dd 3d f8 ad bc bd
       0.011113068 0.019831343 0.10816158 -0.092128694
000070 30 60 a4 3c 82 93 5b 3d 44 c6 3d 3e 54 41 a2 bd
       0.020065397 0.05360747 0.18532664 -0.079226166
000080 2d db 57 3d 70 03 97 bd d0 72 b7 3e ab 65 b1 bc
       0.052699257 -0.073737025 0.35829782 -0.021654924
000090 66 3e c0 bc 0a 4f b3 bc 31 dc 91 3e 3b 92 61 3e
       -0.023467254 -0.021888275 0.28488305 0.22028439
0000a0 bf 45 89 3e cd 33 fa bd f3 19 3f 3d e9 3d fb 3d
       0.26811025 -0.122169115 0.046655606 0.12267668
0000b0 8e fd 39 bd 2d 7a 20 bd 0b b4 4e be 9a eb 7f 3e
       -0.045407824 -0.039179016 -0.20185868 0.24992219
0000c0 07 f1 76 3e 1f f8 0d bd 0c c3 49 bc a9 63 4a bc
       0.24115382 -0.034660455 -0.012314569 -0.012352862
0000d0 c4 12 00 be ae 9a 4b bc 6c c7 58 bc 2f 91 3f 3b
       -0.12507159 -0.012427015 -0.01323114 0.0029230823
0000e0 83 0c 22 bd 21 df 0b bd 9e d6 1b 3e 3d 93 61 3e
       -0.039562713 -0.03414834 0.15218589 0.22028823
0000f0 82 75 09 be e9 a4 0d bd 89 f8 32 bc 58 db 20 bd
       -0.13423732 -0.0345811 -0.010923513 -0.039271683
000100 26 a4 92 bc 4c 7e 7c bd fe a0 87 bd 18 92 da 3b
       -0.017900538 -0.061643884 -0.06622504 0.0066702478
000110 b4 16 46 3e 57 b8 7d 3c c5 b6 d0 3d 3a 38 b7 bc
       0.19344598 0.015485845 0.101911105 -0.022365678
000120 cd 3b 81 be b8 eb aa bc 6e 6d 99 3c 84 da 93 3e
       -0.25240937 -0.020864353 0.018728938 0.28877652
000130 43 81 23 bc 57 90 bf bb f7 aa 7b bd ed df 0e 3d
       -0.009979549 -0.005846064 -0.06144234 0.03488152
000140 47 45 5b bd b4 98 98 3c 97 bf c7 3d b6 88 09 bc
       -0.053532865 0.018627502 0.0975334 -0.008394411
000150 f2 ef 0f bc be 22 c4 bc d2 90 0d 3e 3f 8b 74 3c
       -0.008785235 -0.023942348 0.13824776 0.014925777
000160 f2 14 77 3e ce cf 3b bd e8 45 05 be cf 57 4c bc
       0.24129084 -0.045852475 -0.13014948 -0.012472107
000170 44 7b 8b bc 0b be ba 3b 27 95 da 3d 7b 31 fe 3d
       -0.017026551 0.0056989244 0.1067298 0.124117814
000180 1f fb 88 bc 62 09 45 bc 40 17 ed 3d a6 7a 9a 3e
       -0.016721306 -0.012026163 0.115767 0.30171698
000190 ad 73 37 3e b6 08 0a 3d 00 30 3e 3e a1 95 a6 3e
       0.1791522 0.033699714 0.18572998 0.32536033
0001a0 07 15 85 bb 10 e4 6a be 6e c8 5d bc 65 ff 9b 3d
       -0.0040613445 -0.22938561 -0.013536556 0.07617072
0001b0 a7 86 8c 3c ce ec 80 3e c2 83 41 3e f4 4b 68 3d
       0.017154051 0.25180668 0.18897918 0.05671306
0001c0 34 79 6f 3e 4d 62 a5 3c dc f7 f7 bc e2 9d 59 3d
       0.23386079 0.020188475 -0.030269556 0.053129084
0001d0 d7 c1 91 3e f4 a2 2a 3e f8 bb 77 3e 1e 43 3b 3e
       0.284682 0.16663724 0.24192798 0.18287322

fc2.weight f4 [84, 120]
000000 cb 7c 15 bd 24 20 49 bd be cc 7a 3c fa 13 42 bd
       -0.036495965 -0.049102917 0.015307603 -0.047382332
000010 9f f1 d9 bc 11 c8 f1 bd 58 13 3e bc 43 e2 07 be
       -0.026604472 -0.11805738 -0.011601292 -0.13269906
000020 f5 2d 01 bd 19 3c 2f 3d 57 3a 1b 3d 74 cf 57 bd
       -0.03153797 0.042781923 0.037897434 -0.052688077
000030 e9 9f 46 bd 34 da 5b bd 4b 4c 29 bd 49 b5 0b 3d
       -0.048492346 -0.05367489 -0.041332524 0.034108434
000040 dd 4b 82 3d 26 77 16 bb 04 57 63 bd 93 c6 4e bc
       0.06362126 -0.0022959202 -0.055502906 -0.012620586
000050 a7 52 22 3d 36 34 03 3d 36 66 ab bd 2f 3b f8 bd
       0.039629605 0.032032214 -0.083691046 -0.121206634
000060 b5 69 8a bd eb b7 a1 bc e8 47 82 bd 23 c0 92 bd
       -0.06758443 -0.01974102 -0.06361371 -0.071655534
000070 fe 8c 34 3d a1 fe 26 bd ef e5 98 3c ba cd e9 bb
       0.044079773 -0.040770177 0.018664328 -0.00713512
000080 56 9b 10 bc 94 aa bd 3c f6 2c 19 3d b8 52 d8 bc
       -0.0088260975 0.023152627 0.037396394 -0.02640663
000090 22 11 02 3d 8c 15 97 bc 3b f7 23 bc a3 57 36 bd
       0.03175462 -0.018442892 -0.010007675 -0.04451717
0000a0 f3 cb 82 3c 77 23 cc bd 66 3a 2e bd be 8c a1 bc
       0.015966391 -0.09967702 -0.04253616 -0.019720431
0000b0 7b d2 93 bd fe c2 1b bd f5 ae 41 be 9e 6d 7a bd
       -0.0721788 -0.038027756 -0.18914397 -0.061139695
0000c0 08 5f c7 bd fd 67 93 3d ca d0 06 3d ef 60 f4 bc
       -0.09734923 0.071975686 0.03291396 -0.029831378
0000d0 65 32 7e bd 87 30 6e 3d f6 5e 93 3d c8 42 ac 3c
       -0.06205978 0.058151748 0.07195847 0.021027938
0000e0 43 7f 75 bd 8c fb a8 bd 0b d9 39 bd 40 aa 2a bd
       -0.05993582 -0.08251104 -0.045373004 -0.04166627
0000f0 e4 21 f8 3b 5b 0a e0 3c 5b d4 d8 bd 5b 1f 7c bd
       0.0075723995 0.027348688 -0.105873786 -0.06155334
000100 12 b5 97 bc c8 c5 07 bc e3 c0 9a bd a4 5d 97 bc
       -0.018518958 -0.008286901 -0.075563215 -0.018477269
000110 f7 a1 bc 3c 7b 14 14 bd 5b 23 7a bd 47 98 9b bc
       0.02302645 -0.036152344 -0.061068874 -0.01899351
000120 b6 44 81 bd c2 60 03 3d 58 b4 c6 bb 64 4c 04 be
       -0.06311934 0.032074697 -0.006063979 -0.12919766
000130 39 29 6d 3c f3 39 1d bd 7c 05 4a 3d 22 a6 ce ba
       0.01447516 -0.038385343 0.049321637 -0.0015766064
000140 ad c4 86 bd 81 f7 da 3c 69 08 f3 bd 64 8b 92 bd
       -0.06580482 0.026729347 -0.118668385 -0.07155493
000150 e0 9f 03 bd c1 8d 82 3d 49 4d a6 3d 68 db 80 bc
       -0.03213489 0.06374694 0.0812021 -0.015729621
000160 39 70 54 bd d4 65 58 3d 96 b4 46 bb b3 00 8e bd
       -0.051864836 0.052831486 -0.003032004 -0.06933727
000170 fe b4 40 3d 1a 64 3c bd d9 68 3e bc 16 db 31 3d
       0.047047608 -0.0459939 -0.011621677 0.043421827
000180 68 12 a3 3d 40 38 f5 3a 60 50 82 bd b8 13 45 bc
       0.07962495 0.001870878 -0.063629866 -0.012028627
000190 bb be 42 bd d6 55 a5 ba b6 c7 49 bd c3 ba 85 bd
       -0.047545176 -0.0012614082 -0.049262725 -0.065297626
0001a0 21 8d 84 3d 7c dd c1 bd 01 7b 00 be 33 6c 75 bd
       0.06472231 -0.09466073 -0.12546922 -0.05991764
0001b0 59 9a 05 be 77 6d e9 bc ee 37 8b 3b 62 59 7a bd
       -0.1304716 -0.02849458 0.0042486107 -0.0611204
0001c0 d3 cb b9 bd 7c 74 cb 3c f0 94 bd 3c 58 c5 19 be
       -0.090720795 0.024835818 0.023142308 -0.15016687
0001d0 6b 6d b0 bd 36 55 1e be e5 cc bc bd a9 80 a8 3d
       -0.0861462 -0.15462193 -0.09218768 0.08227665
0001e0 3f bc 0e bd 1f 23 cb bd f1 04 15 be 94 a1 d9 bb
       -0.034847494 -0.09918808 -0.14552666 -0.006641576
0001f0 79 0f e5 bb 92 d5 ce 3d 46 4c 33 bd 27 3b 3d 3c
       -0.00699037 0.10099329 -0.043773912 0.011549748
000200 12 0d f1 bc 86 7f 80 bd 59 2b 56 3d 2c 1b 8e 3e
       -0.029425178 -0.06274323 0.052287433 0.27755105
000210 f2 e4 4e 3d fb a9 05 3e 70 c1 e7 bd 6c 6f 76 3b
       0.050511308 0.13053124 -0.11316192 0.0037603034
000220 47 fd 34 bd cd ff ad bd 12 00 60 3c 54 86 1d 3e
       -0.044186857 -0.08496056 0.013671892 0.15383273
000230 bc 60 4f 3e ee 44 ac bd 8d d6 a1 bd 7c 82 8a bc
       0.20251745 -0.08411585 -0.079022504 -0.016907923
000240 f1 8d 10 bd 69 7a 3c 3d d6 bc 38 be 86 2b 0c bd
       -0.035291616 0.046015177 -0.18040785 -0.034221195
000250 33 8e a4 bc a2 f9 fd 3b fa a2 f0 3c fb d7 0c bd
       -0.020087337 0.007750706 0.029374588 -0.034385663
000260 5f e3 e4 3d c1 d4 92 3d 61 ef ce bd e9 bf e1 3c
       0.1117618 0.07169486 -0.10104252 0.02755733
000270 0c b1 84 bc 01 48 1d bc ed 9a 08 3e 46 94 90 3e
       -0.016197704 -0.009599687 0.1334035 0.28238124
000280 e2 c2 01 3e ce 61 1f bc e7 24 8d 3b 63 83 a5 bc
       0.12671998 -0.009727908 0.0043073776 -0.020204252
000290 8b 95 03 bb cb 72 fb 3c b2 bf 94 3c 2a 7a 6e bd
       -0.0020078148 0.030694386 0.018157814 -0.058221973
0002a0 d1 41 77 bd c4 7c de 3c bb 74 52 bd 66 62 3d bc
       -0.0603655 0.027159102 -0.051380854 -0.011559105
0002b0 f7 e9 3e bd 1f 17 30 3b 87 d6 b0 bd 94 6b 3f bd
       -0.046609845 0.002686925 -0.08634668 -0.046733454
0002c0 3f b5 95 3d 7f 7d 7d bd 8c 1c 35 bc ed 97 be 3d
       0.073099606 -0.06188726 -0.011054169 0.09306321
0002d0 ab 50 8d 3d a7 ea 1e 3d e5 2c 04 3e 83 27 82 bc
       0.06900152 0.038798 0.12907751 -0.015887981
0002e0 e0 96 43 3d 54 01 9f bc c3 c3 32 be c8 b6 9c 3d
       0.047751307 -0.019409813 -0.1745749 0.0765205
0002f0 4d bc 16 3e 81 ae a9 bd 61 05 6f bd ec ec 46 3d
       0.14720269 -0.08285237 -0.05835474 0.04856579
000300 78 c9 02 be 7a 4b e8 bc f0 65 24 bd a4 21 21 3e
       -0.12772167 -0.028356303 -0.040136278 0.15735489
000310 07 9c cd 3c 55 55 1c 3e fb c9 96 3c cc 81 fa bd
       0.025098814 0.15266927 0.018406859 -0.12231788
000320 a6 70 05 be d7 34 7c bd 78 93 5e 3d 0d 93 e1 3c
       -0.13031253 -0.06157383 0.054339856 0.02753594
000330 de b5 43 3d 69 9f 08 bd 3c 24 8c bd 60 f7 c3 bc
       0.047780864 -0.03335515 -0.06842849 -0.023921669
000340 15 77 b9 bd 44 05 94 bd 8a 7b 65 be cc 00 ad 3c
       -0.09055916 -0.07227567 -0.22410408 0.021118544
000350 63 ba e7 bc 61 24 e5 3c 2a 0d 1d 3d f8 9d 5d bc
       -0.028287118 0.027971448 0.038342632 -0.013526432
000360 03 c7 7e 3d c4 7e 4c 3d 02 5e 3a bd 3e 9b d0 3c
       0.06220151 0.04992558 -0.04549981 0.02546465
000370 58 aa 13 3e c9 a1 60 bd ce 52 7d 3c 05 24 19 3e
       0.1442045 -0.05484179 0.015461637 0.14955147
000380 a8 3f 17 3d a8 0d fc 3d de fe 83 be 0e 97 41 be
       0.03692594 0.12307292 -0.25780386 -0.18905279
000390 b7 30 00 3d 9b 84 6b 3d d4 e5 a0 3d bd ec a3 bd
       0.031296458 0.05749951 0.07856336 -0.080041386
0003a0 a2 33 84 bd 57 e9 22 bd 9b 82 15 bd 2c 0f a4 bc
       -0.06455161 -0.03977331 -0.03650151 -0.020026766
0003b0 2a af a2 3d d9 08 c1 3d 51 a3 6a 3d 44 49 9f 3d
       0.07943566 0.09425516 0.057284657 0.07777646
0003c0 e4 68 8b bd 8c 55 d8 3c 95 46 d1 3d a0 80 53 bd
       -0.06807116 0.02640798 0.102185406 -0.05163634
0003d0 f0 31 78 be c6 7a 1f 3e 86 21 50 3c 08 36 73 bd
       -0.242378 0.15574178 0.012703305 -0.0593777
0003e0 25 0d ba bc 97 31 15 3d 93 bd 45 3b a4 31 20 3e
       -0.022711346 0.036424246 0.003017281 0.15643936
0003f0 9a 5d cb 3c b0 9e 19 bc 3d af a5 bd 6a 64 a8 bd
       0.024824906 -0.009376213 -0.08090065 -0.082222775

fc2.bias f4 [84]
000000 85 b0 8d bd 43 8d c6 3e 7b 34 43 3e f0 f3 15 3e
       -0.06918434 0.3877965 0.19062988 0.14643836
000010 f8 48 db 3e dd 7a 53 bd 4f 87 6a 3e 12 7b ab 3d
       0.42829108 -0.051630843 0.22903179 0.08373083
000020 d5 87 c5 3d e2 d9 f7 3d cb 5d 77 bc 51 ce 60 3d
       0.096450485 0.12102105 -0.015098046 0.05488426
000030 ab 95 86 3e 13 43 ab 3e 6f ad a5 3d dc dd 89 bb
       0.26286063 0.3344961 0.080897205 -0.004207356
000040 0b cd a2 3d 81 d9 28 bd 6b a7 ba 3b ce 06 cf 3d
       0.07949265 -0.041223053 0.0056962273 0.1010872
000050 0f 80 e5 3c fd 7d ce 3b 77 23 f4 bc 1d a0 b4 3c
       0.028015165 0.00630164 -0.029802067 0.022049004
000060 9c 5c 58 3e cb 6a 05 3e 23 b5 70 bd 51 5d 1e be
       0.21129078 0.1302902 -0.058766495 -0.15465285
000070 e7 4d 2c be 3d 02 58 3e 3a f5 05 be ee b6 42 3e
       -0.16826592 0.21094604 -0.13081828 0.19015095
000080 90 6f d9 bd aa 5e 1c 3e ce 4d 89 3e 90 79 53 3e
       -0.10616982 0.15270486 0.26817173 0.20651841
000090 68 f5 72 3d 99 4e df bc 36 65 8a 3c 2e 35 35 bd
       0.05931607 -0.027259158 0.016893964 -0.04424017
0000a0 a7 f8 18 3d 72 73 31 bc d6 ee 0e 3d c1 79 5b 3e
       0.03734651 -0.010830747 0.03489574 0.21433164
0000b0 98 b0 c7 3c a9 5a b5 3c c1 20 f6 bd 39 22 99 3e
       0.024376199 0.022137957 -0.12017966 0.29908922
0000c0 75 65 21 bc d3 2e 2e be db bd 4f 3e 34 9e c9 bd
       -0.009850849 -0.1701005 0.20287268 -0.09844628
0000d0 ac 06 81 bd 46 21 b8 3e d6 ac 0b be c0 5c ae 3e
       -0.06300101 0.35962886 -0.1364015 0.34055138
0000e0 28 b2 a1 bd 54 d7 e4 bd 34 a4 09 be 86 12 b1 3d
       -0.07895309 -0.11173883 -0.13441545 0.08646111
0000f0 ee 6d 1c bd 87 6d 10 bd 7e 96 02 3d cf ed d1 bc
       -0.038190775 -0.035260703 0.0318818 -0.025626091
000100 43 95 0f be e4 e1 a4 3d 26 9c fd 3c c6 1f 7a bd
       -0.14021783 0.08050898 0.030958246 -0.061065458
000110 17 3b 01 3e 88 2c c1 bd d3 22 ea 3d 90 1f e4 bd
       0.12620197 -0.09432322 0.114324234 -0.111388326
000120 31 e6 49 3d 09 a9 9b 3e 8c 59 05 bd e1 6b 3c 3e
       0.049291793 0.304024 -0.0325561 0.18400528
000130 a1 8a 53 3e 93 64 b3 3d 0e 12 7f 3e 06 66 11 be
       0.20658351 0.087594174 0.24909231 -0.14199075
000140 87 08 a2 3d df 6a 1c bd 2c ca 26 3e 61 a1 a1 3e
       0.07911783 -0.038187858 0.1628806 0.31568435

fc3.weight f4 [10, 84]
000000 7c d2 9b bc 48 cb 42 be fc cb 2c be dc 7b 8f bc
       -0.019021265 -0.19022858 -0.16874689 -0.017515115
000010 2d ed bf be b0 f7 71 3d 28 ed 16 be db 4f 55 be
       -0.37485638 0.059074104 -0.14738905 -0.20831244
000020 1b 4a 52 3e 64 9c c9 bc fd ba 08 be f0 73 e0 bc
       0.20536081 -0.024610706 -0.1335258 -0.027399033
000030 4c a2 1b 3e bf 58 94 be 5d a1 f1 bd 76 8a 1d 3e
       0.1519863 -0.28973958 -0.11798356 0.1538485
000040 a2 5c a8 3d 5e c1 d2 bc 5b 53 4b 3d f2 94 11 bd
       0.08220793 -0.02572697 0.04964004 -0.035542436
000050 36 2e 6f be cb 85 1f bc 03 0b 0b bd 16 ef d2 bc
       -0.23357472 -0.009736489 -0.03394605 -0.02574877
000060 f8 91 18 3e 99 11 a2 bd a6 ff f5 bd c8 e0 ca 3d
       0.14899433 -0.07913513 -0.12011652 0.09906155
000070 14 61 2b be 90 b3 b3 3b a7 ad ad 3b eb 87 b6 3d
       -0.16736251 0.005484052 0.005300242 0.08912643
000080 4d 2d 82 bd 82 8c d2 bd a5 d8 cb bd 6d 18 45 3b
       -0.06356297 -0.10280706 -0.09953431 0.0030074373
000090 84 9f 4f 3d 3e 4a 60 bd af 32 b1 be 8b ba 72 be
       0.050689235 -0.054758303 -0.3460898 -0.23703973
0000a0 c8 ca 9e 3d 76 2c 5f 3d b0 30 b6 3d c2 92 67 3d
       0.07753521 0.05448576 0.08896005 0.056536444
0000b0 f3 4c 67 3c f7 d5 b9 3b 75 68 30 bd 2b a5 28 bd
       0.014117467 0.0056712586 -0.043068368 -0.04117314
0000c0 e1 7b 66 be 80 db 85 bd ee 2f ce bd 1e d0 2a bc
       -0.22508194 -0.06536007 -0.100677356 -0.010425596
0000d0 20 52 fa bc 47 3a aa 3d f9 ba 83 3d 45 b4 3c be
       -0.030556738 0.08311897 0.064321466 -0.18428142
0000e0 db c1 2a bd 94 f7 8f bd 8d bc 22 3d 00 e5 30 bd
       -0.04168878 -0.07029644 0.039730597 -0.04318714
0000f0 5b 11 c0 bd 02 45 fa bb 45 d5 ca bd cc 91 97 3d
       -0.0937831 -0.007637621 -0.09903959 0.074008554
000100 d3 39 9e bd eb b7 5c be 5e 4d 38 be 3b 25 a9 3d
       -0.07725873 -0.21554534 -0.17998263 0.08259054
000110 48 0a 61 3d f0 c8 87 bd 0d cd 05 be f2 f9 b3 bd
       0.054941446 -0.06630123 -0.13066502 -0.08787908
000120 c4 37 ff 3d ea 0e 97 bb fa 7a 43 bd 28 ea 76 3d
       0.12461808 -0.004609932 -0.0477247 0.060281903
000130 47 c2 a2 3d dd 84 26 3e bf 7c 43 be 4c 53 06 be
       0.07947212 0.16261621 -0.19090556 -0.13117713
000140 23 8e 85 3d 38 57 0e 3e 3b 2e d1 3d 68 d1 b5 3d
       0.06521251 0.13900459 0.10213896 0.08877832
000150 c9 2a 7c be 35 0f c1 3c 66 5a 10 be 69 8a 41 bd
       -0.24625696 0.023566822 -0.14096984 -0.04725114
000160 5a d5 a4 bc 27 b7 70 be 54 2d 13 be 11 46 97 3c
       -0.020121265 -0.23507367 -0.1437276 0.018466027
000170 40 75 f8 bd a2 bc 31 3e c4 a5 ac bc e2 30 d5 bd
       -0.12131739 0.17357114 -0.021075137 -0.10409714
000180 ee 88 95 bd e5 53 30 bd dd 2a 4d be c1 9b c2 3d
       -0.07301508 -0.043048758 -0.20035882 0.09502364
000190 a9 ad 89 bd c9 d4 41 3e b1 cb 40 be f8 5b bf bd
       -0.06722576 0.18928827 -0.18827702 -0.093437135
0001a0 65 3b 36 3e f3 6c 83 bd d3 00 52 be 53 6d d0 bd
       0.17796095 -0.06417265 -0.20508127 -0.10177102
0001b0 61 4d b6 3d af 2d a7 be 81 f1 b7 3d e9 64 15 3e
       0.089014776 -0.3265204 0.0898161 0.14589275
0001c0 47 4a ce bd ce 43 36 bd 48 85 03 3d 20 0c ec bd
       -0.10072761 -0.044498257 0.03210953 -0.1152575
0001d0 39 98 78 be d4 80 06 bd 6d 81 65 be 80 46 67 be
       -0.24276818 -0.032837704 -0.22412653 -0.22585487
0001e0 8d bb 04 3e 4c ae 99 3c 28 d6 4f 3c 45 e8 18 3d
       0.1296217 0.018759869 0.012685336 0.037330884
0001f0 6d 6d e4 3d 33 e0 45 bd 8c 3c 1f 3e 1a e3 ce 3d
       0.11153684 -0.048309516 0.1555044 0.1010191
000200 44 c6 00 3e 33 35 37 bd 30 65 e4 bd 91 46 c5 bd
       0.12575632 -0.04472847 -0.111521125 -0.096326
000210 0f ab c1 bd 85 8d 81 3d c6 82 b6 bc bc 38 18 3e
       -0.09456455 0.06325821 -0.022279155 0.14865392
000220 43 f9 de bd 0a 38 84 bd 44 cf e2 bd db 13 fa bd
       -0.10887387 -0.06456001 -0.11074689 -0.122108184
000230 9e 5a ce 3d a9 eb c8 3d a0 e4 a3 bd 0d 1e 20 be
       0.100758776 0.098105736 -0.08002591 -0.15636463
000240 16 00 49 3d 51 6d a7 3d ad b4 59 be 1f fd 43 3e
       0.049072348 0.08175147 -0.21260329 0.19139527
000250 0d c2 03 be 0b 1a 34 bd 3f b6 b6 3d 99 83 21 bb
       -0.12866993 -0.04397015 0.089214794 -0.0024645089
000260 3d 71 2f be 68 3d 1e 3e b1 1f 4f 3d a9 86 b3 bd
       -0.1713304 0.15453112 0.050567333 -0.08765919
000270 f8 e1 17 3e ab a6 89 be bd 9b e8 bd 7c 75 29 be
       0.14832294 -0.2688497 -0.1135783 -0.16548723
000280 86 1d 11 be 56 9e b8 bd a1 a7 04 be b8 18 b8 bd
       -0.14171419 -0.09014575 -0.1295457 -0.0898909
000290 17 da 07 bd 22 cf 09 bd 34 13 4a be c9 02 f3 bd
       -0.03316697 -0.033644803 -0.19733888 -0.118657656
0002a0 12 bb 72 bd f9 b2 92 bd 66 fc a9 3d 6c e9 31 3e
       -0.059260435 -0.071630426 0.08300094 0.173742
0002b0 36 39 9b 3d fb 05 78 bd cd 17 3a be a0 4c cb bd
       0.075792715 -0.06055258 -0.18173142 -0.099267244
0002c0 b7 89 18 3e d1 40 19 be 29 8d 20 bd 10 9e 87 bd
       0.14896284 -0.14966132 -0.03919712 -0.06621945
0002d0 fe db 87 3d f3 00 e6 3d 05 02 1b 3d a0 a3 98 bd
       0.06633757 0.1123065 0.037843723 -0.07453084
0002e0 8f 2e 0c 3d 0f af 48 be 13 1a a3 ba ea 9d 6a bc
       0.03422409 -0.1959803 -0.0012443684 -0.014319876
0002f0 74 4d 4f 3d ee 96 ff bd 8d bb 0a be 12 b6 19 3e
       0.050610974 -0.124799594 -0.13548107 0.1501086
000300 d8 cd 86 bd f3 6f 91 3d 0d 81 49 3a cd 91 81 bc
       -0.0658223 0.07101431 0.00076867716 -0.015816594
000310 a4 0d 1b be 8c a0 6d be ef eb ca 3b 7b 6b 2c be
       -0.15141922 -0.23205775 0.0061926763 -0.16837876
000320 fa cd 0a bb 15 cd 89 3d 44 aa cf bd 1f 66 06 bc
       -0.00211799 0.067285694 -0.101398975 -0.0082030585
000330 a4 b5 1f bc 87 4d 47 3a 63 e3 04 bd 25 d5 9e bd
       -0.009747896 0.00076028 -0.032443415 -0.07755498
000340 2f c6 bc bd 5c 3d 67 3b 72 39 9e 3c e8 98 03 be
       -0.09217488 0.0035284376 0.019314501 -0.12851298
000350 ef b8 be bd cb 7d 24 3e af 41 84 3d 2b 00 27 3e
       -0.09312617 0.16063611 0.06457841 0.16308658
000360 ca 20 b0 bc d5 6c fd 3d e2 67 f1 3c ae ed 8f bc
       -0.02150001 0.12374274 0.02946848 -0.01756939
000370 e4 d8 98 bc d7 20 5f 3d b7 7a ae bd b9 94 8c bd
       -0.018658109 0.054474678 -0.085195 -0.06864304
000380 7f 02 0b be d6 e4 b2 bd af 57 d2 bc 30 8c a1 3d
       -0.13575171 -0.08735053 -0.025676576 0.07888067
000390 29 65 18 3e e9 10 ff bd b1 23 8a bc cb 7e c8 3d
       0.1488234 -0.12454397 -0.016862722 0.09789809
0003a0 d5 b8 51 bd 22 64 62 bd 3c 47 06 3e f6 d2 cb bd
       -0.05120166 -0.055271275 0.13113111 -0.09952347
0003b0 41 3a 11 3e 61 83 40 be b4 54 a7 3d d6 dd 22 3c
       0.14182378 -0.18800117 0.08170453 0.009940585
0003c0 2d c8 2c be 2d 99 f7 bd d7 9d 59 bd 1a 7d 1a 3e
       -0.16873236 -0.12089763 -0.053129043 0.15086785
0003d0 b8 d6 df 3d c8 3f 03 3e 55 24 24 3e 7c be 1c bb
       0.10929626 0.128173 0.16029485 -0.0023917248
0003e0 d6 30 d8 bd 0f fc 0d 3d 08 90 7a 3d 49 25 dc 3a
       -0.1055619 0.03466421 0.061172515 0.001679578
0003f0 f3 38 92 bd e1 66 32 3d 99 b8 36 bd 41 06 56 be
       -0.071397685 0.043555144 -0.04460964 -0.20900823

fc3.bias f4 [10]
000000 5c ca 62 bd ae 52 2d be 01 08 39 bc 70 9a 5c 3e
       -0.055368766 -0.16926071 -0.011293412 0.21543288
000010 ff e2 95 3e fe a8 a3 3b 53 23 a4 3a 3d b0 a5 bb
       0.29274747 0.0049945107 0.0012522734 -0.0050564096
000020 4c c0 16 3d 4c 5e d0 bd
       0.036804482 -0.10174236
